propofol_policy_final.pth (torch, 12382 bytes, 5 tensors)

shared_net.0.weight f4 [64, 2]
000000 5f f2 05 bf 9f d0 39 3e e5 52 25 3f 51 b0 5c bf
       -0.52322954 0.18145989 0.6457961 -0.8620654
000010 f4 00 03 bf fc 38 9a be ca 80 2d 3f 4c 6b f2 be
       -0.5117333 -0.301216 0.6777464 -0.47347486
000020 b7 db 2c bf b0 ac c2 3e 45 5a 76 3e cd ea 37 bf
       -0.6752276 0.38022375 0.24057873 -0.7184265
000030 30 f1 2d bf a6 2c 22 3f 4c be 15 bf c7 51 75 bd
       -0.6794615 0.6334938 -0.58493495 -0.059892442
000040 ed 45 e1 be 55 60 44 be ba 67 3d bc 2c da 02 bf
       -0.43998662 -0.19177373 -0.011560375 -0.51114154
000050 7a ea 2b 3b 9d 5d 74 3f ee b0 fd be c8 67 11 bf
       0.0026232288 0.9545534 -0.4954905 -0.5679898
000060 91 43 86 3e f8 ec 39 3f b1 11 21 3d 7e 04 c5 be
       0.26223424 0.7262721 0.039323512 -0.3847999
000070 dc 18 a3 3d d1 e1 39 bf ec 3e 0f bf 21 86 91 be
       0.07963726 -0.72610193 -0.55955386 -0.28422645
000080 7b a0 e3 3e 8b a8 ac be 6d 99 d1 bd bb 43 b4 bd
       0.44458374 -0.33722338 -0.10234342 -0.08801981
000090 32 bb 4e 3e c1 cd 8e bd 84 da ea 3d 3b ed e0 be
       0.20188597 -0.06972838 0.1146746 -0.43930992
0000a0 30 85 d1 bd 9b 00 01 3e a9 1d 6f be b2 1d 7d 3e
       -0.102304816 0.12597887 -0.23351158 0.24718359
0000b0 ea b1 ed 3d 8a b1 80 3e 4a 4f 55 3d b7 59 9c be
       0.116062 0.25135452 0.05207757 -0.30537197
0000c0 5f 67 b5 be 8d 1d be 3e 2c b2 9e 3e 20 21 2b 3f
       -0.35430428 0.3713192 0.3099531 0.6684742
0000d0 3c e3 50 be 51 d0 1c 3f 17 f9 b5 be 34 ad c9 be
       -0.20399183 0.61255366 -0.35541603 -0.39389956
0000e0 39 81 35 bd 97 2e 1e 3b d0 3e a7 3e b8 47 52 3f
       -0.04431269 0.0024136656 0.3266511 0.82140684
0000f0 18 84 ec 3e f5 5d a1 3e a9 10 79 3e 92 c2 02 bf
       0.4619453 0.31516996 0.24322762 -0.5107814
000100 7f 3d 0d 3f e5 2a 45 3f fc c8 0f bf e3 b7 b8 be
       0.5517196 0.77018577 -0.5616605 -0.36077794
000110 db d6 a7 bd 09 0b 2b bf 88 e3 a9 3d 5a c2 14 bf
       -0.08195277 -0.66813713 0.08295351 -0.58109057
000120 0a 2f e5 3e 8c f0 93 be 37 b5 7b 3e 8d e7 f7 3e
       0.4476245 -0.2889446 0.24580847 0.48418847
000130 a4 a5 52 be 77 1a b2 bd 79 e0 0a 3f 79 74 ea 3e
       -0.20571 -0.08696454 0.5424877 0.45791987
000140 34 51 c0 be aa 78 15 be 90 aa 69 bc 68 cf 74 3f
       -0.37561953 -0.14596811 -0.014261857 0.95628977
000150 a2 57 50 3e d0 b6 39 bf 02 88 e4 3e 4b 30 96 3e
       0.2034593 -0.72544575 0.44635016 0.2933372
000160 a5 90 0e 3d c7 2c 30 be 7c 37 93 bc 36 32 26 3f
       0.034805913 -0.17204581 -0.017970793 0.64920366
000170 fd a8 09 be a9 f8 0f 3f bf 0d f6 be 9f 1a 5c be
       -0.1344337 0.562388 -0.48057362 -0.2149453
000180 5c 7b d8 be 45 76 10 bf 1b 9e cb 3e 68 b2 64 3b
       -0.42281616 -0.56430465 0.39769062 0.0034896377
000190 64 c9 4a be c0 15 13 bf 11 d4 98 3e 58 ed 5b 3f
       -0.19803387 -0.5745506 0.29849294 0.8590903
0001a0 94 83 84 be 6f 38 c0 3e 41 98 cb be 7a 51 62 be
       -0.25881636 0.37543055 -0.39764598 -0.22101393
0001b0 da 47 c7 be 61 3d c7 bc 13 5c 01 3f 6c 17 5a 3e
       -0.38922006 -0.02432126 0.5053112 0.21297997
0001c0 6b a2 03 3f 62 1e e6 be de a9 71 3e 83 05 9c bd
       0.51419705 -0.44945055 0.23599955 -0.07618239
0001d0 6f 3b 68 3e c4 af 16 bf 16 e4 07 be ef 3d b6 3d
       0.22678922 -0.5886195 -0.13270602 0.08898532
0001e0 f1 50 16 3f 40 42 a8 be 4d 96 08 bf d6 f5 8a bc
       0.58717257 -0.32863045 -0.5335434 -0.016962927
0001f0 87 74 05 3f ab fe a0 3d 58 bf 03 3e 4d 2e 31 bf
       0.5213093 0.07861074 0.1286596 -0.69211274

shared_net.0.bias f4 [64]
000000 be 0b ff be 10 77 8d 3e 7d 77 c0 be 89 20 0a 3e
       -0.49813646 0.276299 -0.37591162 0.13488974
000010 5b 35 1d bf 48 0b d8 bd c3 91 55 3d 81 d2 03 3f
       -0.6140954 -0.10549027 0.052140962 0.5149308
000020 eb 58 5b 3e 0a 7b b2 be 85 c5 82 be 52 cf 23 bd
       0.21420638 -0.34859496 -0.2554132 -0.039992638
000030 72 b9 da 3c c7 08 83 3e a9 0f c8 3e 6f 4c db 3d
       0.026699755 0.25592634 0.39074448 0.10707938
000040 a1 13 1a 3e 38 c3 12 bf 64 e9 a3 3d 73 ec 41 bf
       0.1504655 -0.5732913 0.080035 -0.7575142
000050 85 f0 2c 3f 70 75 c7 be 0a ca 6f be 5f 3e 10 3f
       0.67554504 -0.38956785 -0.23416916 0.5634517
000060 5e 7a 47 3d 12 f9 81 3d 0e 0c 2b bf f3 7e 28 3f
       0.048700683 0.063463345 -0.6681527 0.6581871
000070 86 05 dd be 30 16 19 be a3 c3 c4 3e f1 af 0b 3e
       -0.43168277 -0.1494987 0.3843051 0.13641335
000080 39 3b 5e be 67 d9 80 3e 66 62 63 3e 14 21 3c bf
       -0.21702279 0.25165865 0.22205505 -0.73487973
000090 9c 07 84 bc ff 49 ae be dc 6e 8f bd dd f9 8e 3e
       -0.01611691 -0.3404083 -0.070035666 0.27925006
0000a0 05 0c 30 bf bd cf 3d 3f ae ce 2e be a1 8a 19 bf
       -0.6876834 0.7414511 -0.1707103 -0.59977156
0000b0 a0 80 03 be 3d 80 4a 3d 81 8c 2d bf 2e 20 dc be
       -0.12842035 0.049438704 -0.67792517 -0.429933
0000c0 62 fc 01 3f 01 ea 1d bf f9 ca 0e bf 51 0e 9d 3e
       0.5077573 -0.61685187 -0.5577846 0.30674985
0000d0 de 81 b0 3e 94 cc 17 3f a4 2f ce 3e c9 cd 70 be
       0.3447408 0.59296536 0.40270722 -0.23516001
0000e0 38 d9 ba be ad e6 5a be 54 91 3c bf d8 a2 26 bf
       -0.3649385 -0.21377058 -0.73659253 -0.6509223
0000f0 8b b5 0c bf a0 db 25 3f 6a 06 04 3e 19 b7 0c 3f
       -0.5496451 0.64788246 0.12893072 0.54966885

shared_net.2.weight f4 [32, 64]
000000 24 31 0a bd 60 e7 ab 3b 00 93 38 ba be 67 c9 bd
       -0.03373827 0.005246088 -0.00070409477 -0.098342404
000010 e6 60 db 3d f2 ea da 3d c4 d0 c4 bd 36 4a 8e 3d
       0.10711841 0.106893435 -0.096101314 0.06947748
000020 b4 20 3d 3d 18 a4 fd 3d 4e df fb bd 44 c4 c4 bd
       0.046173766 0.12384814 -0.12298451 -0.09607747
000030 b0 8c 06 bd 2c 1a d5 bd e0 ab d4 bd c0 3c 0e bd
       -0.032849014 -0.104053825 -0.10384345 -0.034725904
000040 6c cd 02 bd b0 90 40 3d 24 3d 39 bd a4 72 4e 3d
       -0.031934187 0.047012985 -0.045224324 0.0504023
000050 80 0b 08 bb 18 99 c8 bc 34 4b 53 3d 20 36 44 bc
       -0.0020758808 -0.024487063 0.05158539 -0.011975795
000060 c0 f8 d1 3c 56 5e ac 3d 68 8f f5 3c 64 5e 15 3d
       0.025631309 0.08416431 0.029975608 0.03646697
000070 a0 76 c8 bd 00 20 36 b8 c8 e1 f1 3d ee 38 85 bd
       -0.09788251 -4.3421984e-05 0.118106425 -0.06504999
000080 d0 b0 1d bc 98 fb 86 3c e4 63 d1 bd f8 4c 0b bd
       -0.009624675 0.016477391 -0.10224131 -0.03400895
000090 cc 58 a1 bd fc 0e c2 bd fc 08 ad 3d d0 df 11 bd
       -0.07878265 -0.09475514 0.08448979 -0.035613835
0000a0 00 2c 08 b9 70 d2 38 bd 90 da 0e 3c 00 ae 11 bd
       -0.00012986362 -0.045122564 0.008719102 -0.03556633
0000b0 7c ab 87 bd 10 32 d0 3d 68 92 3a bd f0 cf df bc
       -0.06624505 0.10165799 -0.04554978 -0.027320832
0000c0 90 b1 d8 bd 00 8a 67 3c 8a 0c 9e bd b0 da 6d 3d
       -0.10580742 0.014132023 -0.077172354 0.058069885
0000d0 76 0e d6 bd 80 bc c5 ba 08 09 be bc 00 c1 4f 3b
       -0.10451977 -0.0015086085 -0.023197666 0.003170073
0000e0 56 cc bb bd e8 b0 dd bd 0c c2 d2 bd 2c 2d 46 3d
       -0.09169833 -0.10824758 -0.10290918 0.048382923
0000f0 64 c7 b6 3d ac f3 7b bd 94 bc f5 bd be 8b f1 bd
       0.089247495 -0.06151168 -0.11998859 -0.11794232
000100 aa 8b ba bd 54 3a 47 bd 00 58 98 bd e8 24 42 bd
       -0.0910867 -0.04863961 -0.0743866 -0.047398478
000110 74 ef c8 bd a0 d0 be 3c 08 ac a7 3c 3c f8 63 bd
       -0.09811297 0.02329284 0.020467773 -0.055656657
000120 42 8f f8 3d a4 19 be 3d d0 24 6c 3d c2 b5 b1 3d
       0.12136699 0.09282234 0.057652295 0.08677246
000130 14 0f ec bd 30 1e a1 3c 9a d6 f2 3d 58 55 41 bd
       -0.115263134 0.019667715 0.11857338 -0.04720053
000140 64 e7 36 3d 64 da 47 bd fe 16 8f bd dc 70 b9 3d
       0.044654265 -0.048792258 -0.06986807 0.09054729
000150 00 9b 34 3a 98 5c a1 3d 8c 94 9c bd 70 33 46 3d
       0.0006889552 0.07878989 -0.076455206 0.0483889
000160 2a 61 b4 3d f0 3d 67 bc 44 4c 41 bd b8 5d 7c 3d
       0.08807595 -0.014113888 -0.047191873 0.061612815
000170 44 1a c0 3d b8 36 40 bd 0e ca bd bd f8 e3 cc bd
       0.0938001 -0.046927184 -0.092670545 -0.10004419
000180 7e 19 c5 bd 9e 3c cf 3d 4c ed 78 3d 40 29 6a 3b
       -0.09624003 0.10118984 0.06077318 0.0035730153
000190 94 e2 69 3d fc 0f 6d 3d f0 30 fc 3d fc e3 48 bd
       0.057100847 0.057876572 0.123140216 -0.049045548
0001a0 fe 58 9e bd 34 9d d8 3d fa 49 b8 3d 90 b9 9a 3c
       -0.07731818 0.10576859 0.08998485 0.018887311
0001b0 5a 8d d7 3d f8 e1 8f 3d f4 aa 01 bd 60 cb d7 bc
       0.105250075 0.07025522 -0.031657174 -0.026342094
0001c0 34 79 1a bd 0e 1d c4 bd ea f7 be 3d 30 75 81 3c
       -0.037713245 -0.09575854 0.093246296 0.01580295
0001d0 40 32 69 3b ec e9 7f bd d2 8f 97 3d 70 30 48 bd
       0.003558293 -0.062478945 0.074004784 -0.04887432
0001e0 f0 de f5 bd 3a 7c 9e bd f8 06 a0 bd c0 9a 53 3d
       -0.120054126 -0.07738538 -0.07813829 0.051661253
0001f0 34 b9 8e bd 40 40 70 bb e2 61 f7 bd 46 34 cd bd
       -0.069689184 -0.003665939 -0.120792165 -0.10019736
000200 34 a6 33 bd 03 cc ed 3c c0 52 e5 bc 19 07 79 3d
       -0.043859676 0.029027944 -0.02799356 0.060797784
000210 dc f0 b3 bd 29 8a 17 bd 28 03 bf bd 00 6c d3 39
       -0.08786175 -0.036996994 -0.09326774 0.00040325522
000220 38 b8 a5 bd d0 02 82 3d 40 60 b4 be 16 5c c3 3d
       -0.080917776 0.06348193 -0.35229683 0.095390484
000230 0c d4 c7 3c df 04 e6 bc 41 ae 79 3d 08 b4 56 3d
       0.024393104 -0.028078495 0.060957197 0.052417785
000240 14 1d d3 3d d0 7c d7 bc 4e 51 df bd 54 b2 25 bd
       0.103082806 -0.026304632 -0.109041795 -0.04045327
000250 14 92 10 bd f8 52 6b 3d 6e 49 e5 bd ab 3e 66 3d
       -0.03529556 0.057452172 -0.11195646 0.05621211
000260 4c ea fc 3d 60 46 99 bd ae 31 37 bc d0 bb b0 bd
       0.12349376 -0.07484126 -0.011181278 -0.086295724
000270 a8 7f 9f 3d 23 75 01 be 1a e8 c5 bd f9 ea 9f 3d
       0.0778802 -0.1264234 -0.096634105 0.07808489
000280 e2 8b b4 3d d4 a9 d5 3d 54 85 fb 3d 29 aa ba 3d
       0.08815743 0.10432783 0.1228129 0.09114487
000290 25 91 94 bd ba 23 9b bd 70 66 7a bd 92 47 98 bd
       -0.072542466 -0.07575174 -0.06113285 -0.07435526
0002a0 68 af a0 3d 5a f8 a2 be 8d 03 8b 3d bc 3e 3f 3d
       0.07845956 -0.31830102 0.06787787 0.046690688
0002b0 5b 7d 77 bd b0 6f b2 be 42 c4 ce 3d fa bd c5 3d
       -0.060422283 -0.34850836 0.10096027 0.09655376
0002c0 dc fc 8b bd 1e 81 0b bd c0 ec b2 3b 1f 0f 77 3c
       -0.068353385 -0.034058683 0.0054603517 0.015079289
0002d0 74 57 45 3d 78 f7 b9 3d 56 86 fb 3d 52 30 b9 3d
       0.048179105 0.09080404 0.12281482 0.090424195
0002e0 df a4 00 3e 2b b2 fa bc 43 8e ae 3d c8 4e 24 bd
       0.12562893 -0.030602535 0.08523228 -0.040114194
0002f0 5d c8 8f bd bc a1 85 bd 8e 9b dd 3d 94 6f 4a 3d
       -0.07020638 -0.06524989 0.10820685 0.049422815
000300 b8 91 99 3c ec c7 78 3d c8 c9 cb bc 78 e1 8e 3d
       0.018746242 0.060737535 -0.02487649 0.069765985
000310 62 ea 90 bd 40 40 60 3b ea 2c 92 bd ac 3b b1 bd
       -0.07075955 0.0034217983 -0.07137473 -0.0865396
000320 dc 0a 77 3d a0 8f 3a bc 4c 45 9c bd ca c0 e0 bd
       0.06031309 -0.011386782 -0.07630405 -0.109742716
000330 78 8a ad bc e0 90 ef bd b0 04 34 3c 04 03 80 3d
       -0.021184191 -0.116975546 0.010987446 0.06250575
000340 cc bc cd bd 66 e0 ba bd 40 f6 c1 bb 20 e2 9f bb
       -0.10045776 -0.09124832 -0.005919248 -0.004879251
000350 e0 8c a6 3b 98 eb f7 3d a4 f9 ba bd 34 94 b7 bd
       0.0050827116 0.12105483 -0.091296464 -0.089638144
000360 c0 c5 6a 3c 90 df bb 3c 68 09 99 bc 68 a7 95 bc
       0.014329374 0.022933751 -0.018681243 -0.018268302
000370 38 54 a1 bc d8 9f a0 bd e2 bd c1 bd c4 6e 19 3d
       -0.019693479 -0.07842988 -0.094600454 0.03745915
000380 98 d3 aa 3c 2e c7 90 bd b0 05 1f 3c e0 24 18 bd
       0.020852849 -0.070692405 0.009705946 -0.03714454
000390 20 6f 9f 3b f0 61 18 3c bc fe 67 bd f2 71 88 bd
       0.004865542 0.009300694 -0.056639418 -0.06662358
0003a0 c0 e3 cb 3b a6 50 91 bd 78 b2 cc bd 00 10 a4 3c
       0.0062222183 -0.070954606 -0.09994978 0.02002716
0003b0 00 f0 f8 ba 42 2f 9b 3d 28 f7 5e bd 80 4c f3 3a
       -0.0018992424 0.07577373 -0.054434925 0.0018562227
0003c0 30 66 ab bc 08 0d 21 3d f0 a8 68 bc 10 14 b7 bc
       -0.02092275 0.03931907 -0.014200434 -0.022348434
0003d0 34 d6 a7 3d 72 93 9d bd a0 b2 b3 3d 52 17 fa bd
       0.08195153 -0.076941386 0.087743044 -0.12211479
0003e0 e4 44 ef 3d 7c 62 b2 3d 42 c3 db bd 70 31 cf 3c
       0.11683062 0.08710191 -0.10730602 0.025292128
0003f0 b0 bc 96 3d 3a 7b de bd 88 ba 25 bd 40 d3 61 bd
       0.07360208 -0.10863347 -0.040461093 -0.055133104

shared_net.2.bias f4 [32]
000000 64 d0 d3 bd fc b3 09 3d a5 95 6f be 54 8f 19 bd
       -0.10342482 0.033618912 -0.23396929 -0.037490204
000010 94 94 bf bd 9a 87 cb bd f7 0e eb bd 6c 79 42 bd
       -0.09354511 -0.09937973 -0.11477464 -0.04747908
000020 27 9f 11 3d 14 39 d5 bd 90 97 35 bc 8b 1d 0d bc
       0.03555217 -0.104112774 -0.011083499 -0.008613001
000030 f6 c5 bd bd ac 79 44 bc 6e 2f 94 bd b3 1a c8 bd
       -0.09266274 -0.011991899 -0.07235609 -0.097707175
000040 24 75 c9 3d c1 90 3f 3e f0 9c e9 3c 30 4b 2e 3c
       0.09836796 0.18707563 0.028517216 0.010638043
000050 8c 05 5f 3d b8 27 be bd c0 7c 13 bd a1 ce 13 3c
       0.05444865 -0.092849195 -0.036007643 0.009021432
000060 c2 bf 02 3e d4 59 2f 3e 9a f9 b1 3d ec 95 f3 3d
       0.12768462 0.1712411 0.08690186 0.1189383
000070 44 f8 b9 3d 8c 00 56 3d 00 9a b1 3d 8d cd 1d 3e
       0.09080556 0.052246615 0.08671951 0.15410443

mean_layer.weight f4 [1, 32]
000000 74 02 52 3d 77 2c f1 3d c7 a0 e9 3d af 04 ec 3c
       0.05127187 0.11776059 0.11407619 0.028810827
000010 cc 8a 23 bd 53 d6 2d be be 5f 10 bd 23 f9 28 3e
       -0.03992729 -0.1697629 -0.035247557 0.16501288
000020 1a 58 ab bd 4b 3e 12 3e 5d 56 6e 3d 65 a8 31 bd
       -0.083664134 0.14281575 0.05818783 -0.043373484
000030 22 01 2a 3d 7a 19 1e 3d d9 4c de 3d 0f dd fa 3d
       0.041504987 0.038598515 0.10854501 0.12249195
000040 a7 0a 03 be 27 4a dd bc 5c 1b d0 bd 93 eb ff 3d
       -0.12797032 -0.027012898 -0.101614684 0.12496104
000050 dc 7e 14 be f1 e1 4a bd 1d 16 64 bd a8 cb ca bd
       -0.14501518 -0.04953188 -0.05568515 -0.099021256
000060 01 e4 22 bd 42 e4 2a bd bd c6 d1 3d f0 0e 2c bc
       -0.039768223 -0.04172159 0.102429844 -0.010501608
000070 39 94 34 be 1e d2 2d bd 29 aa c1 3d 32 43 07 bd
       -0.17634667 -0.04243671 0.094562836 -0.033023067
